shira@LAPTOP-A21KREOG MINGW64 ~/OneDrive/Documents/Projects/precious (master)
$ C:/Users/shira/anaconda3/python.exe c:/Users/shira/OneDrive/Documents/Projects/precious/DriftMINERun.py
Testing on participants, ['OA', 'SHS', 'IS']
300 total observations

Optimizer: Adam
Learning rate = 1e-05
Batch size = 16
statistical_estimator(
  (conv_layers): ModuleList(
    (0): Conv1d(14, 32, kernel_size=(5,), stride=(3,))
    (1): Conv1d(32, 64, kernel_size=(5,), stride=(1,))
    (2): Conv1d(64, 128, kernel_size=(5,), stride=(1,))
    (3): Conv1d(128, 256, kernel_size=(5,), stride=(1,))
    (4): Conv1d(256, 512, kernel_size=(5,), stride=(1,), padding=(2,))
    (5): Conv1d(512, 512, kernel_size=(5,), stride=(1,), padding=(4,))
  )
  (conv_batchNorm): ModuleList(
    (0): BatchNorm1d(32, eps=1e-05, momentum=0.1, affine=True, track_running_stats=True)
    (1): BatchNorm1d(64, eps=1e-05, momentum=0.1, affine=True, track_running_stats=True)
    (2): BatchNorm1d(128, eps=1e-05, momentum=0.1, affine=True, track_running_stats=True)
    (3): BatchNorm1d(256, eps=1e-05, momentum=0.1, affine=True, track_running_stats=True)
    (4): BatchNorm1d(512, eps=1e-05, momentum=0.1, affine=True, track_running_stats=True)
    (5): BatchNorm1d(512, eps=1e-05, momentum=0.1, affine=True, track_running_stats=True)
  )
  (conv1): Conv2d(3, 16, kernel_size=(5, 5), stride=(5, 5), padding=(2, 2))
  (conv2): Conv2d(16, 32, kernel_size=(5, 5), stride=(2, 2), padding=(2, 2))
  (conv3): Conv2d(32, 64, kernel_size=(5, 5), stride=(2, 2), padding=(2, 2))
  (non_linearity): ELU(alpha=1.0, inplace=True)
  (fc): ModuleList(
    (0): Linear(in_features=3072, out_features=1536, bias=True)
    (1): Linear(in_features=1536, out_features=768, bias=True)
    (2): Linear(in_features=768, out_features=384, bias=True)
  )
  (fc_last): Linear(in_features=384, out_features=1, bias=True)
)
Files already downloaded and verified
len train dataset 240
C:\Users\shira\anaconda3\lib\site-packages\torch\utils\data\dataloader.py:563: UserWarning: This DataLoader will create 16 worker processes in total. Our suggested max number of worker in current system is 8 (`cpuset` is not taken into account), which is smaller than what this DataLoader is going to create. Please be aware that excessive worker creation might get DataLoader running slow or even freeze, lower the worker number to avoid potential slowness/freeze if necessary.
…
